…
283/283 [==============================] - 2s 8ms/step - loss: 0.2807 - accuracy: 0.9293 - val_loss: 1.3342 - val_accuracy: 0.6293
Epoch 9/10
283/283 [==============================] - 2s 8ms/step - loss: 0.2038 - accuracy: 0.9503 - val_loss: 1.4950 - val_accuracy: 0.6207
Epoch 10/10
283/283 [==============================] - 2s 8ms/step - loss: 0.1528 - accuracy: 0.9658 - val_loss: 1.4794 - val_accuracy: 0.6363
Model: "sequential"
_________________________________________________________________
 Layer (type)                Output Shape              Param #
=================================================================
 conv2d (Conv2D)             (None, 126, 126, 32)      320
 activation (Activation)     (None, 126, 126, 32)      0
 max_pooling2d (MaxPooling2D  (None, 63, 63, 32)       0
 )
 flatten (Flatten)           (None, 127008)            0
 dense (Dense)               (None, 128)               16257152
 activation_1 (Activation)   (None, 128)               0
 dense_1 (Dense)             (None, 15)                1935
=================================================================
Total params: 16,259,407
Trainable params: 16,259,407
Non-trainable params: 0
_________________________________________________________________
Model: "sequential_1"
_________________________________________________________________
 Layer (type)                Output Shape              Param #
=================================================================
 conv2d_1 (Conv2D)           (None, 126, 126, 64)      640
 activation_2 (Activation)   (None, 126, 126, 64)      0
 conv2d_2 (Conv2D)           (None, 124, 124, 128)     73856
 activation_3 (Activation)   (None, 124, 124, 128)     0
 conv2d_3 (Conv2D)           (None, 122, 122, 256)     295168
 activation_4 (Activation)   (None, 122, 122, 256)     0
=================================================================
Total params: 369,664
Trainable params: 369,664
Non-trainable params: 0
_________________________________________________________________
Epoch 1/100